optim_params.npy (npy, 64120 bytes, 1 tensors)

array f8 [7999]
00000000: 5316 6fb5 c5c3 e13f 7e23 59b2 2096 c7bf
00000010: da46 467a ea12 d63f 5527 2210 96c6 eabf
00000020: d0ca ed98 df0e b43f 62aa f38c 109e f03f
00000030: 5213 7c16 4d54 0340 9195 04cb d30f debf
00000040: 235b de1e 6227 02c0 f960 9a67 7d06 dabf
00000050: 1271 30cf 9432 fc3f 66c5 844a 96e6 e53f
00000060: f8d9 cd96 bec2 c7bf 3788 5464 3460 f5bf
00000070: 588c 7fbc f83f b13f 4537 a782 442e fabf
00000080: 0d7e 5860 8adb fdbf dfe7 5887 dab3 f6bf
00000090: 4f5d db12 22de efbf b1dc a5cd 345b f1bf
000000a0: 5050 6bb3 d2c0 f73f 0e84 68b1 bed8 e13f
000000b0: 018d 7dc4 2f0a e8bf 294d 9096 afdb da3f
000000c0: 58f4 43c2 6540 d7bf ffd5 1df1 fe2b f0bf
000000d0: 0b39 4129 f02f c5bf b602 c2c6 2f73 e3bf
000000e0: 9f32 6f95 ee03 dd3f 2d18 73ad e870 cb3f
000000f0: c9f5 a292 8e9f b93f 9bf7 a892 96d1 fdbf
00000100: 457b 353b 7e23 e8bf f028 edd5 8614 ff3f
00000110: c50d 0ef8 3b2c e33f 73d9 7b43 0ce7 f53f
00000120: 91a5 0a97 3981 f5bf 0a5b 67a6 035b e4bf
00000130: ba20 372c 17c6 fabf 31d6 8cc7 2959 bcbf
00000140: a754 69cb a80b fbbf 8562 a682 bda4 f0bf
00000150: c474 2799 240e eb3f 42f5 0d9d e4e4 f8bf
00000160: fe2d 69fa d70e c53f d5d0 b989 04d8 e4bf
00000170: 0ef8 fe5b c85f 05c0 7a01 8c65 133f e73f
00000180: 534d 1b4d 4233 e9bf e8f4 0db1 9764 c73f
00000190: 45db 833b e844 d83f e12e f362 3d7d ebbf
000001a0: ec29 2cbf d304 f4bf 185f cae7 4a8f d9bf
000001b0: fe57 6e08 28d4 04c0 783e e774 631d e7bf
000001c0: 0f0b 1974 a918 c7bf fb92 f676 fad6 e9bf
000001d0: 79d7 83e5 4982 be3f 13c8 80b2 8d6b d93f
000001e0: 82db 2610 ef4d f4bf 1169 5074 7604 e63f
000001f0: 0745 d502 acc5 ecbf d87a 921c aeae f0bf
00000200: 160c 94db ed60 e03f 094f 5531 2149 c8bf
00000210: 63de cd23 f396 d8bf 3e79 6330 bc6b dabf
00000220: d923 3d8d 0539 e6bf 505b 90fa b355 e33f
00000230: 6071 d409 2684 aa3f f11f eb88 1a09 ea3f
00000240: f776 432d 02d8 b8bf 9826 6b15 1592 ec3f
00000250: 211f 5985 50db c5bf 6efa 0f6d 226e e0bf
00000260: 191e 372c 8f44 cdbf 94fb 11a9 712b 99bf
00000270: 7456 e47d 26ba e9bf 77cc 8a34 0429 ecbf
00000280: 3a4d 0e62 3d12 af3f 9b21 a50d 0d89 f5bf
00000290: e4f4 494c 636d e2bf 268b 84b2 6cb3 f9bf
000002a0: 3567 cfb4 2d09 fc3f 7398 5af2 ff0e d3bf
000002b0: 1412 0148 a831 d43f 3936 0316 28aa f43f
000002c0: 207a 38ab f2b8 edbf 6d1a 46d9 e7c1 f4bf
000002d0: f118 be99 2678 ddbf 237a 362a 9759 d03f
000002e0: 6879 1235 70e1 c43f 047f fad4 287a 06c0
000002f0: 5305 31ea aef3 b13f b13a 379f 379e c03f
00000300: 8525 0b88 246c f13f 109c 4964 93c5 da3f
00000310: bb75 9242 47a6 f4bf 9638 dfa8 d0ee d5bf
00000320: f489 ef80 8c61 f5bf 9625 0275 fba0 c83f
00000330: 8007 c233 94d6 e5bf b1f1 c779 2e32 ae3f
00000340: c07b 354c 13a6 d13f 79ac 0769 08b8 dabf
00000350: 34da e455 c966 f2bf 09b0 6127 c244 fd3f
00000360: 59ab 8226 ff69 e6bf 440c af9c b8db 01c0
00000370: 58e0 5dec 612d 07c0 c49a 1d2c 1a5e 02c0
00000380: d1ee 3ec6 4c01 f93f fd4e b21c d239 0040
00000390: 9adb 2a6e 210d da3f 0231 292d 3e6a d0bf
000003a0: 5821 74e4 3c6f f13f 5dc7 a81b c107 9e3f
000003b0: 50a6 7bb8 2d56 eb3f 1bb0 d906 27d6 edbf
000003c0: 962e b35d 8091 fdbf fb5a 01ad a899 d03f
000003d0: 37e2 30e8 13fd ff3f 951e 5136 4dff e23f
000003e0: c8d7 14c7 4284 e0bf 482c 2313 3e01 cabf
000003f0: 9729 f2c1 f4ef b83f f4fe b911 d4b7 df3f
00000400: e499 3676 1726 eabf ce3f eb77 4f81 e93f
00000410: be01 3d02 0b72 f3bf b9ba 8323 2c5f cbbf
00000420: a2a5 44f5 c935 fc3f 4a9f e767 f1e8 e73f
00000430: 0f46 8cd1 3c7b ecbf 07e8 703a aaf9 f6bf
00000440: f532 7c63 323e d6bf 1bd6 1ccc 9094 f3bf
00000450: d61a fa91 1387 e4bf b13d b893 d1c7 9dbf
00000460: 4559 0573 b1e7 eebf f597 e3ad 1510 ec3f
00000470: 4821 703a 28d3 d5bf 9e77 1e96 263b e5bf
00000480: 4a43 3ca3 6a4f e0bf 5af6 044b faaf bbbf
00000490: bc61 ec9a b318 debf 6f6c 9d0a 58d1 d5bf
000004a0: 5f35 9b4a d199 e7bf 84cd 2811 2a9d ccbf
000004b0: 5fac 7761 0740 0240 fc89 abcc 0073 bd3f
000004c0: c49a 6a14 9c9c e5bf f276 65ee ca1b b33f
000004d0: 1a9c e7eb 6bf3 ec3f 2d91 5a3c f4da 89bf
000004e0: bb45 cc25 590b dabf 27f6 14bd c65f fabf
000004f0: 6dc4 aae5 4b8f d73f a0af 5ca6 b390 f33f
00000500: 4706 8923 8703 f0bf 9dd0 3018 1681 f73f
00000510: 992e 4cf2 787e a03f 9198 4c6e d54a dbbf
00000520: aae7 6b17 60ca f1bf e60f b4bb 3b00 05c0
00000530: dc59 96db 6f4b b53f b647 bf3f 455d d1bf
00000540: 58f7 a79f b917 f4bf a6cf 6ec4 1312 dd3f
00000550: 9a53 5fac 125c dabf 7cea 37aa 73fa adbf
00000560: bb73 f768 1929 e63f f990 e5b1 c1d5 f53f
00000570: 6f78 9a28 708b f0bf 6cc6 7393 c86c f23f
00000580: a9c0 e736 8cb5 f53f 85de 411d 5822 0640
00000590: 00af ee5c c4f5 a53f 9d96 4e51 b267 ffbf
000005a0: 3b85 47de 0c54 f73f 39b9 bae0 f0bb e23f
000005b0: bf79 cc63 8850 db3f 4444 d930 ddbc debf
000005c0: b235 5aba 4622 ea3f 3410 1a9f a281 e83f
000005d0: 1cf4 b1d7 91de c2bf 0df0 8573 9c8f f5bf
000005e0: 05d8 a46a 0e8a f1bf cd48 99da 3acc f1bf
000005f0: dc09 5c1b e106 e9bf c72e db87 8faa cfbf
00000600: 1162 6ccc bfda eb3f 6d93 b2bd 4e95 f33f
00000610: b8bf 0bf0 7be8 f7bf 338e 7be0 3e72 d43f
00000620: 871f 41e4 1f50 d93f b52a 8bc7 16dc ebbf
00000630: b656 dde5 2523 babf 201f ead9 4c99 dc3f
00000640: d923 33ea 9801 e4bf 435e b4d8 1ecb ebbf
00000650: 0a23 039c 7646 fc3f 8e30 6b12 97d5 e4bf
00000660: f797 3bb4 75c1 e93f ae14 bbed 6a46 ec3f
00000670: 8e4a 6108 e8ba de3f d6c5 3775 d928 e4bf
00000680: 8057 94a9 0309 0740 e173 13d1 9f25 f33f
00000690: 53fb 91e3 8a8c dcbf 6e7f 7491 0be0 a3bf
000006a0: a077 8bb1 aa2d f2bf 5939 6d41 c4b6 f13f
000006b0: 378e 04c7 fc43 e1bf da9e 4a55 f1a6 f13f
000006c0: ba78 af94 4708 ebbf 2d89 3153 d401 eabf
000006d0: 6427 bad3 9a51 eb3f f83e 90a1 e2a1 ebbf
000006e0: e10d ab90 f502 cc3f c18a 0af3 a6e1 f5bf
000006f0: 6ae5 a88a 872c ebbf b950 5c28 2465 e83f
00000700: 0320 d9f3 292e ed3f b39c 4731 0514 e0bf
00000710: 12d6 0e7f 7576 ff3f 6bbe 5628 54d5 9a3f
00000720: 67a2 b6ca 1df4 eb3f e245 2c7e caf9 e1bf
00000730: 9a72 157f ce6c d13f 94fa b9b6 877e c13f
00000740: b94e 6973 2dc4 e23f 50a0 e936 0de3 f2bf
00000750: aa04 1531 f1f4 ecbf 8d92 f9e8 d759 f5bf
00000760: 9cd6 c3a5 e148 d6bf 1ad5 dfeb 56d5 ddbf
00000770: 1128 f4df 6065 e03f a7ca b653 c26c e73f
00000780: a489 7bd8 ec04 0240 d7e1 4c57 e280 fcbf
00000790: fc7b 82aa 3395 ee3f c83f d82b 18ef c8bf
000007a0: d78b a6a9 b113 8e3f a0c6 9f01 4ba2 c4bf
000007b0: 311e 1f9e 8db3 b0bf ad2b 948a 2112 e0bf
000007c0: 881a 04df c548 a1bf fe3b c184 c20b c83f
000007d0: 5f70 7758 1944 f93f ac04 9181 55c6 e93f
000007e0: 28ce 7d8c 1eaa d53f e7fa 074c 1206 f03f
000007f0: d1ef 7409 34b3 e5bf a2b5 3bd8 b1b8 f8bf
0.5551479858047038 -0.184269034465867 0.34490453663702925 -0.8367414774995533 0.07835195048918853 1.0385900026255048 2.416162658368571 -0.46971602273910046
-2.269230118904845 -0.4066461097477397 1.7623489468888391 0.6843978362505083 -0.18563063014489933 -1.3359874648235868 0.06738237955100723 -1.636295805324566
-1.8660987628462664 -1.4189095770839157 -0.9958658569620783 -1.0847671540375752 1.484575939995029 0.5577081170087028 -0.7512434804633871 0.4196585626934444
-0.36330551120028565 -1.010741178380499 -0.1655254556121196 -0.6078108674992879 0.4533649882621748 0.21438320607393405 0.10009089546198092 -1.863668988123641
-0.7543326527046267 1.942511401796363 0.5991496891805858 1.368908179863493 -1.3440490627348007 -0.6361101389000805 -1.673361942974266 -0.1107355224783866
-1.6903465219268499 -1.0402197936547577 0.8454764357844842 -1.5558820853178337 0.16451549269764593 -0.6513693513830058 -2.6717688738999703 0.726449678739342
-0.7875072008122664 0.18275734086265705 0.3792057591630747 -0.8590380604377651 -1.251178499953876 -0.39937088619034133 -2.603591981761382 -0.7223374636905211
-0.18044012230719672 -0.8074924777507414 0.11917554715532032 0.3971895449823261 -1.2690268164567162 0.6880447646865681 -0.8991298728307421 -1.0426465145207455
0.511832169402967 -0.18973174008225893 -0.38421324249745775 -0.41282562947698753 -0.6944606550761093 0.6042117971254388 0.05178946371072146 0.8136112856091114
-0.09704602818552731 0.8928323191004948 -0.17075544844760152 -0.5134441499829572 -0.22865476283026068 -0.024579788154820273 -0.8039734324290309 -0.880006888028574
0.06068603345843333 -1.3459597142228634 -0.5758530130402986 -1.6063048337316075 1.752240854539605 -0.2977905146348185 0.3155308440366593 1.2915421352257808
-0.9288266510155303 -1.2973402488002208 -0.4604584218399302 0.255468169425429 0.16312983123220737 -2.8096481932587967 0.07012456147733319 0.12982840799528142
1.088902026577075 0.4183090667124256 -1.2905953026268964 -0.34270111552621907 -1.3363156353522045 0.1924127885179529 -0.6824437151810656 0.05897660481057033
0.27576143686559007 -0.41748247391542 -1.150094352267513 1.8292867220252467 -0.700439048019102 -2.2322857132835754 -2.897159430136565 -2.2959483572516053
1.5628173583963199 2.028232788268609 0.4070514274457594 -0.25648455057377373 1.08965768089009 0.02932645541495248 0.8542698481734963 -0.9323916562839288
-1.8480228099969387 0.25937859435127536 1.9992865629157117 0.5936647473217415 -0.5161451233204781 -0.20316291746562087 0.0974114392758224 0.4955949948416525
-0.8171498593190418 0.7970349638144343 -1.215342530005827 -0.21384193166837465 1.7631320553576662 0.7471854237928508 -0.8900436489804536 -1.43595335796863
-0.3475461932692235 -1.2237709019804075 -0.6414888239968046 -0.029082560196966593 -0.9657828566076111 0.8769634624738943 -0.34101300913654997 -0.6634705478679626
-0.5096944034758988 -0.10815395671394282 -0.47025766495928756 -0.3409023383771403 -0.7375265557435958 -0.22354627454624787 2.2812640776296997 0.11503605839565262
-0.6753673933752329 0.07464283294890686 0.9047145469202207 -0.012624652950144888 -0.4069426411743639 -1.6483828912745453 0.3681211226313 1.2228275774495856
-1.0008613002868445 1.4690152115772783 0.03221490819677548 -0.42644248744398633 -1.1119080462362754 -2.6251139320684045 0.08318232642191198 -0.27131777978240323
-1.2557922588889223 0.4542283457078561 -0.4118696864437027 -0.05855142071591943 0.6925169992570014 1.3646866749850786 -1.0340425096578902 1.1515584716657044
1.3568231720674169 2.7667696271635713 0.04289067873409458 -1.9628165412954452 1.4580200846470024 0.5854420079465746 0.4267903303715705 -0.48027734537487654
0.8166841163344343 0.765824614282343 -0.14741728813160726 -1.3475613129257937 -1.0962051549699947 -1.112360814954218 -0.782089761196683 -0.2473925984726206
0.8704527847904179 1.2239520464001672 -1.4942588211815586 0.3194729988301532 0.3955154160544158 -0.8706163308464371 -0.10209881650856797 0.44685670166698976
-0.6251949857916045 -0.8685449821959498 1.76720295851027 -0.6510730132809088 0.8048656959697372 0.8835959094218617 0.4801578599773756 -0.629986504498613
2.879401516761334 1.1966856162100543 -0.4460780355802189 -0.03881870413374498 -1.136149114164688 1.1071207576493036 -0.5395492446008977 1.1032574969958007
-0.8447606948864383 -0.8127233147500071 0.8537115226074374 -0.8635113864456505 0.21884030879856112 -1.3675908559604724 -0.8491857250402692 0.7623463428776837
0.9118852389010502 -0.50244388222645 1.9664206469727827 0.026204409563148106 0.8735493621107481 -0.5617420639338742 0.27226602945828804 0.13667389318648715
0.5864474538925243 -1.1804325242064984 -0.9049001654276669 -1.334434423502134 -0.3481983298109783 -0.4661462119541554 0.5123752950760282 0.7320262560882228
2.2524048721981718 -1.7814658556145468 0.9557131128566421 -0.19479658261161448 0.014686000814270557 -0.16120278910925823 -0.06523976431264412 -0.5022132593743344
-0.03375833842624326 0.187858881780329 1.579125733921522 0.8054606943698182 0.3385082599627105 1.0014822931258835 -0.67812539908436 -1.545091480885596
